PPO_exp/CartPole-v0/weights_2019.09.21-23.54.57_0093.npy (npy, 76568 bytes, 1 tensors)

array f8 [9555]
97.0 103.0 101.0 110.0 116.0 47.0 97.0 99.0
116.0 111.0 114.0 47.0 100.0 101.0 110.0 115.0
101.0 47.0 107.0 101.0 114.0 110.0 101.0 108.0
58.0 48.0 nan 4.0 64.0 nan -0.012022515758872032 0.19917523860931396
-0.14167089760303497 -0.19263851642608643 0.14773708581924438 0.2905791997909546 -0.16521857678890228 -0.1304652988910675 0.21012020111083984 -0.12163715064525604
-0.056289851665496826 -0.2619791328907013 -0.1423681527376175 -0.15031906962394714 0.20947785675525665 0.039617590606212616 0.13985498249530792 -0.050983671098947525
0.036148685961961746 -0.21712465584278107 0.12088103592395782 -0.16535906493663788 0.05337601527571678 0.1093914657831192 0.20610295236110687 -0.04399987682700157
0.024570340290665627 0.14928196370601654 0.1941894292831421 0.21553191542625427 -0.1143377423286438 0.05928857624530792 0.0012818536488339305 -0.01613461971282959
-0.005857720039784908 -0.04493047297000885 -0.12575270235538483 0.2242926061153412 -0.20379586517810822 -0.0904894769191742 0.09773600846529007 -0.26633894443511963
-0.2045927494764328 0.0666467621922493 0.19642993807792664 0.16338323056697845 0.2085919976234436 -0.09215971827507019 0.06515903025865555 -0.24002088606357574
0.12300610542297363 -0.2686651647090912 -0.05701460316777229 -0.06947194784879684 0.2836962938308716 0.2866590917110443 0.28228768706321716 0.1360243707895279
0.048254091292619705 -0.0875418558716774 0.2971116602420807 -0.039934512227773666 0.09936203807592392 0.06324790418148041 0.06562069058418274 -0.06035616621375084
-0.2840886414051056 -0.09018047899007797 -0.015071428380906582 -0.09872128814458847 0.2748282551765442 0.11579269915819168 0.26175904273986816 0.18073053658008575
-0.15799309313297272 0.22579120099544525 0.07490496337413788 0.28869619965553284 -0.1713327020406723 0.254350483417511 -0.057975560426712036 0.111260324716568
-0.1278729885816574 -0.009843057952821255 0.20130184292793274 0.21307213604450226 -0.22914965450763702 0.061879243701696396 -0.22637243568897247 0.2984454929828644
-0.19023138284683228 -0.2871738374233246 -0.27700209617614746 0.17681138217449188 0.12379567325115204 0.07411304861307144 -0.07511809468269348 -0.1180817261338234
-0.04265978932380676 0.23698195815086365 -0.2617179751396179 -0.14367543160915375 -0.14383360743522644 0.18980330228805542 -0.10046298801898956 -0.03685212880373001
-0.010597685351967812 -0.28056052327156067 0.0631830245256424 0.2466135174036026 0.21171484887599945 0.20940624177455902 0.09756731241941452 -0.2344653606414795
0.14071404933929443 -0.058888670057058334 -0.244659423828125 -0.025629838928580284 -0.2670988440513611 -0.2466931790113449 0.1844039261341095 0.1896292120218277
-0.24609938263893127 -0.2228562831878662 0.004691549576818943 0.24634282290935516 -0.15526409447193146 0.21102692186832428 -0.21269987523555756 0.13471926748752594
-0.07826968282461166 -0.17364206910133362 -0.21862150728702545 0.2441912442445755 0.15889936685562134 0.2648344337940216 0.016519412398338318 0.12912939488887787
0.200826957821846 -0.21700508892536163 0.3614950180053711 -0.17650702595710754 -0.04682861641049385 0.051479268819093704 0.0357045903801918 -0.3744606673717499
-0.17982040345668793 -0.08208572864532471 0.10451062023639679 0.05051673948764801 0.08712849020957947 -0.055257897824048996 -0.20958536863327026 0.4092588424682617
-0.3294747471809387 -0.019324960187077522 -0.34391286969184875 0.21197347342967987 0.03897742182016373 -0.17124256491661072 0.23834411799907684 -0.38620725274086
0.23840448260307312 0.08149149268865585 -0.22533008456230164 -0.0064176274463534355 0.4024275541305542 -0.2354382872581482 -0.2453688681125641 0.22300435602664948
0.19134213030338287 -0.3078204393386841 0.16683275997638702 -0.02752949483692646 0.25520431995391846 0.22454142570495605 0.22475026547908783 -0.16646748781204224
0.4125426411628723 0.06443315744400024 -0.2494296431541443 0.040715645998716354 -0.33990758657455444 0.4237232506275177 -0.019680138677358627 -0.42243438959121704
0.13964560627937317 -0.4371243417263031 -0.4012714624404907 0.3788323700428009 0.17096878588199615 0.23786991834640503 -0.2516661584377289 0.15795552730560303
0.30109038949012756 -0.24231435358524323 -0.28884461522102356 0.09451012313365936 -0.05632861703634262 0.22828932106494904 0.22119596600532532 -0.1853061318397522
-0.03332371264696121 -0.10405861586332321 0.032185304909944534 0.27221590280532837 0.16869696974754333 0.29203715920448303 0.19686871767044067 -0.30151695013046265
-0.13480979204177856 0.06729243695735931 0.2494371086359024 -0.07301979511976242 -0.07577390968799591 -0.1737094223499298 -0.07076878100633621 0.19975338876247406
-0.18102043867111206 0.14032503962516785 -0.28331828117370605 0.03926971182227135 -0.04581160470843315 -0.039125386625528336 0.15159839391708374 -0.06362440437078476
00000000: 0000 0000 0040 5840 0000 0000 00c0 5940
00000010: 0000 0000 0040 5940 0000 0000 0080 5b40
00000020: 0000 0000 0000 5d40 0000 0000 0080 4740
00000030: 0000 0000 0040 5840 0000 0000 00c0 5840
00000040: 0000 0000 0000 5d40 0000 0000 00c0 5b40
00000050: 0000 0000 0080 5c40 0000 0000 0080 4740
00000060: 0000 0000 0000 5940 0000 0000 0040 5940
00000070: 0000 0000 0080 5b40 0000 0000 00c0 5c40
00000080: 0000 0000 0040 5940 0000 0000 0080 4740
00000090: 0000 0000 00c0 5a40 0000 0000 0040 5940
000000a0: 0000 0000 0080 5c40 0000 0000 0080 5b40
000000b0: 0000 0000 0040 5940 0000 0000 0000 5b40
000000c0: 0000 0000 0000 4d40 0000 0000 0000 4840
000000d0: 0000 0000 0000 f87f 0000 0000 0000 1040
000000e0: 0000 0000 0000 5040 0000 0000 0000 f87f
000000f0: 0000 00c0 429f 88bf 0000 0000 937e c93f
00000100: 0000 00a0 4522 c2bf 0000 0000 61a8 c8bf
00000110: 0000 0080 0ce9 c23f 0000 0080 d998 d23f
00000120: 0000 00e0 e125 c5bf 0000 0040 16b3 c0bf
00000130: 0000 0000 38e5 ca3f 0000 00c0 9c23 bfbf
00000140: 0000 0000 06d2 acbf 0000 0020 44c4 d0bf
00000150: 0000 00a0 1e39 c2bf 0000 00c0 a73d c3bf
00000160: 0000 00a0 2bd0 ca3f 0000 00c0 c148 a43f
00000170: 0000 00a0 c4e6 c13f 0000 0020 881a aabf
00000180: 0000 00a0 1482 a23f 0000 00a0 bdca cbbf
00000190: 0000 0040 0ff2 be3f 0000 0060 7c2a c5bf
000001a0: 0000 00e0 1954 ab3f 0000 0040 1401 bc3f
000001b0: 0000 00e0 9461 ca3f 0000 00e0 2687 a6bf
000001c0: 0000 00a0 f728 993f 0000 00e0 ab1b c33f
000001d0: 0000 0000 33db c83f 0000 00c0 8c96 cb3f
000001e0: 0000 0000 3d45 bdbf 0000 0080 125b ae3f
000001f0: 0000 00e0 7b00 553f 0000 0000 9885 90bf
00000200: 0000 00c0 43fe 77bf 0000 0080 2001 a7bf
00000210: 0000 0020 aa18 c0bf 0000 00c0 9eb5 cc3f
00000220: 0000 00a0 fb15 cabf 0000 0080 512a b7bf
00000230: 0000 0020 3a05 b93f 0000 0080 b20b d1bf
00000240: 0000 0060 1830 cabf 0000 0020 c30f b13f
00000250: 0000 00c0 9d24 c93f 0000 00e0 bde9 c43f
00000260: 0000 0080 24b3 ca3f 0000 0080 c797 b7bf
00000270: 0000 0020 43ae b03f 0000 0020 01b9 cebf
00000280: 0000 0000 547d bf3f 0000 0060 cf31 d1bf
00000290: 0000 00a0 0431 adbf 0000 00e0 e9c8 b1bf
000002a0: 0000 0080 1428 d23f 0000 0060 9f58 d23f
000002b0: 0000 0060 0011 d23f 0000 0020 3f69 c13f
000002c0: 0000 00a0 c2b4 a83f 0000 00a0 2469 b6bf
000002d0: 0000 00a0 e003 d33f 0000 00e0 4b72 a4bf
000002e0: 0000 0060 ca6f b93f 0000 00c0 0331 b03f
000002f0: 0000 0080 84cc b03f 0000 00e0 00e7 aebf
00000300: 0000 0020 822e d2bf 0000 0060 1116 b7bf
00000310: 0000 00e0 c4dd 8ebf 0000 0060 cc45 b9bf
00000320: 0000 0040 c996 d13f 0000 0020 97a4 bd3f
00000330: 0000 0000 a9c0 d03f 0000 00a0 2d22 c73f
00000340: 0000 0020 1e39 c4bf 0000 00e0 b9e6 cc3f
00000350: 0000 00c0 f82c b33f 0000 00a0 ff79 d23f
00000360: 0000 00e0 3aee c5bf 0000 0040 4747 d03f
00000370: 0000 0000 f9ae adbf 0000 0080 8e7b bc3f
00000380: 0000 0060 245e c0bf 0000 00e0 9828 84bf
00000390: 0000 0040 42c4 c93f 0000 00a0 f245 cb3f
000003a0: 0000 00a0 c654 cdbf 0000 00e0 a2ae af3f
000003b0: 0000 00a0 c5f9 ccbf 0000 0020 bb19 d33f
000003c0: 0000 0080 8059 c8bf 0000 0060 0e61 d2bf
000003d0: 0000 0000 67ba d1bf 0000 0060 c1a1 c63f
000003e0: 0000 00c0 12b1 bf3f 0000 00a0 12f9 b23f
000003f0: 0000 0080 f03a b3bf 0000 00a0 9a3a bebf
00000400: 0000 0000 81d7 a5bf 0000 00c0 6c55 ce3f
00000410: 0000 00c0 fcbf d0bf 0000 00e0 f463 c2bf
00000420: 0000 00c0 2369 c2bf 0000 0080 794b c83f
00000430: 0000 0040 f1b7 b9bf 0000 0040 48de a2bf
00000440: 0000 0040 3db4 85bf 0000 0020 b4f4 d1bf
00000450: 0000 0040 c32c b03f 0000 0020 0891 cf3f
00000460: 0000 00e0 7819 cb3f 0000 00e0 d2cd ca3f
00000470: 0000 00e0 2bfa b83f 0000 0000 f602 cebf
00000480: 0000 0000 eb02 c23f 0000 00e0 a726 aebf
00000490: 0000 0000 0051 cfbf 0000 0060 b53e 9abf
000004a0: 0000 00c0 2518 d1bf 0000 0060 a493 cfbf
000004b0: 0000 0040 8c9a c73f 0000 0020 c545 c83f
000004c0: 0000 0040 2f80 cfbf 0000 0000 8e86 ccbf
000004d0: 0000 0040 7237 733f 0000 0060 2988 cf3f
000004e0: 0000 00a0 b1df c3bf 0000 0020 ee02 cb3f
000004f0: 0000 00e0 bf39 cbbf 0000 0020 7b3e c13f
00000500: 0000 0060 7b09 b4bf 0000 0040 e739 c6bf
00000510: 0000 0020 cafb cbbf 0000 00a0 a841 cf3f
00000520: 0000 0080 d056 c43f 0000 0020 0cf3 d03f
00000530: 0000 0000 77ea 903f 0000 00e0 4f87 c03f
00000540: 0000 00a0 b2b4 c93f 0000 00a0 d2c6 cbbf
00000550: 0000 0000 bc22 d73f 0000 0040 c897 c6bf
00000560: 0000 00a0 ebf9 a7bf 0000 00a0 7d5b aa3f
00000570: 0000 0040 df47 a23f 0000 00e0 29f7 d7bf
00000580: 0000 00e0 5a04 c7bf 0000 0000 9203 b5bf
00000590: 0000 0040 35c1 ba3f 0000 0080 54dd a93f
000005a0: 0000 0080 0d4e b63f 0000 0060 c34a acbf
000005b0: 0000 0080 b1d3 cabf 0000 0000 4c31 da3f
000005c0: 0000 0040 1d16 d5bf 0000 0020 ecc9 93bf
000005d0: 0000 0020 ab02 d6bf 0000 0060 f221 cb3f
000005e0: 0000 0040 d9f4 a33f 0000 00c0 46eb c5bf
000005f0: 0000 0060 0f82 ce3f 0000 00a0 9eb7 d8bf
00000600: 0000 00c0 0984 ce3f 0000 0060 a0dc b43f
00000610: 0000 00c0 9dd7 ccbf 0000 00c0 5e49 7abf
00000620: 0000 0080 5fc1 d93f 0000 0080 d722 cebf
00000630: 0000 0040 3f68 cfbf 0000 0020 688b cc3f
00000640: 0000 0020 e67d c83f 0000 0080 54b3 d3bf
00000650: 0000 00a0 c65a c53f 0000 0020 b130 9cbf
00000660: 0000 0080 4455 d03f 0000 0000 c6bd cc3f
00000670: 0000 00e0 9dc4 cc3f 0000 0080 ce4e c5bf
00000680: 0000 0040 1967 da3f 0000 0000 b17e b03f
00000690: 0000 0080 4fed cfbf 0000 0060 aed8 a43f
000006a0: 0000 00c0 0bc1 d5bf 0000 0020 481e db3f
000006b0: 0000 00c0 0727 94bf 0000 0040 2a09 dbbf
000006c0: 0000 0040 e8df c13f 0000 0060 d8f9 dbbf
000006d0: 0000 0080 6eae d9bf 0000 0020 ca3e d83f
000006e0: 0000 0020 4ee2 c53f 0000 0080 8572 ce3f
000006f0: 0000 0060 4c1b d0bf 0000 0000 e337 c43f
00000700: 0000 00a0 1045 d33f 0000 0020 2804 cfbf
00000710: 0000 0020 6e7c d2bf 0000 00c0 d031 b83f
00000720: 0000 00c0 1ad7 acbf 0000 00a0 9538 cd3f
00000730: 0000 0040 2650 cc3f 0000 0080 1cb8 c7bf
00000740: 0000 0040 ce0f a1bf 0000 00e0 95a3 babf
00000750: 0000 00a0 977a a03f 0000 0040 fc6b d13f
00000760: 0000 00c0 dc97 c53f 0000 00a0 bcb0 d23f
00000770: 0000 0080 fe32 c93f 0000 00c0 0d4c d3bf
00000780: 0000 0080 7241 c1bf 0000 00c0 133a b13f
00000790: 0000 0020 8eed cf3f 0000 00e0 6cb1 b2bf
000007a0: 0000 0040 eb65 b3bf 0000 0040 1c3c c6bf
000007b0: 0000 0020 e71d b2bf 0000 00e0 8491 c93f
000007c0: 0000 0080 ad2b c7bf 0000 00c0 2bf6 c13f
000007d0: 0000 0000 e321 d2bf 0000 00e0 281b a43f
000007e0: 0000 0060 9e74 a7bf 0000 0020 3e08 a4bf
000007f0: 0000 0080 9367 c33f 0000 0060 b049 b0bf
