PPO_exp/LunarLander-v2/weights_2019.09.23-21.44.09_0180.npy (npy, 81704 bytes, 1 tensors)

array f8 [10197]
00000000: 0000 0000 0040 5840 0000 0000 00c0 5940
00000010: 0000 0000 0040 5940 0000 0000 0080 5b40
00000020: 0000 0000 0000 5d40 0000 0000 0080 4740
00000030: 0000 0000 0040 5840 0000 0000 00c0 5840
00000040: 0000 0000 0000 5d40 0000 0000 00c0 5b40
00000050: 0000 0000 0080 5c40 0000 0000 0080 4740
00000060: 0000 0000 0000 5940 0000 0000 0040 5940
00000070: 0000 0000 0080 5b40 0000 0000 00c0 5c40
00000080: 0000 0000 0040 5940 0000 0000 0080 4740
00000090: 0000 0000 00c0 5a40 0000 0000 0040 5940
000000a0: 0000 0000 0080 5c40 0000 0000 0080 5b40
000000b0: 0000 0000 0040 5940 0000 0000 0000 5b40
000000c0: 0000 0000 0000 4d40 0000 0000 0000 4840
000000d0: 0000 0000 0000 f87f 0000 0000 0000 2040
000000e0: 0000 0000 0000 5040 0000 0000 0000 f87f
000000f0: 0000 0040 555a bd3f 0000 0000 be3a b13f
00000100: 0000 0080 e499 55bf 0000 0080 48ac d5bf
00000110: 0000 00c0 8a66 d33f 0000 0080 649a c1bf
00000120: 0000 00a0 a4ea bdbf 0000 00e0 1f5b a43f
00000130: 0000 0080 5aa3 c13f 0000 0040 cc92 c33f
00000140: 0000 0080 9188 c7bf 0000 00e0 196c 8dbf
00000150: 0000 0060 08a2 b1bf 0000 0020 7f80 cc3f
00000160: 0000 00e0 b7fa c8bf 0000 0080 816b ce3f
00000170: 0000 0040 5d07 d7bf 0000 00c0 1efc c13f
00000180: 0000 00a0 31a1 bb3f 0000 0020 80a3 b43f
00000190: 0000 0020 9609 d0bf 0000 0040 1d72 bbbf
000001a0: 0000 00a0 7aaf d13f 0000 0000 6947 cbbf
000001b0: 0000 0040 930c c53f 0000 00c0 036b bf3f
000001c0: 0000 0020 942f a23f 0000 0000 8940 cabf
000001d0: 0000 00c0 2f1f a6bf 0000 00c0 fd66 bebf
000001e0: 0000 0040 80ba d73f 0000 00e0 41e2 ba3f
000001f0: 0000 0020 5931 693f 0000 0040 27da c03f
00000200: 0000 0080 d240 d4bf 0000 0000 e19d c63f
00000210: 0000 00a0 c65f d93f 0000 0060 8d98 b0bf
00000220: 0000 0040 9790 cabf 0000 0020 c1df ba3f
00000230: 0000 00c0 94b0 ca3f 0000 0040 fb6f d53f
00000240: 0000 0060 32b1 cb3f 0000 0060 55ac c3bf
00000250: 0000 00c0 5dbc bb3f 0000 0040 c306 c33f
00000260: 0000 0080 ddaf bebf 0000 0020 9b88 c43f
00000270: 0000 00e0 9f7e 90bf 0000 00e0 7806 c9bf
00000280: 0000 00c0 99e2 b1bf 0000 0060 5dae c4bf
00000290: 0000 0080 80fb c23f 0000 0080 99d4 99bf
000002a0: 0000 0040 03c7 c8bf 0000 0040 e6cb bcbf
000002b0: 0000 0020 76d2 babf 0000 00a0 3557 d93f
000002c0: 0000 00e0 42dc b1bf 0000 0000 c11e ccbf
000002d0: 0000 00c0 1d04 c7bf 0000 0020 05ea d2bf
000002e0: 0000 0080 bb3d c93f 0000 0040 bbb5 aa3f
000002f0: 0000 0020 1395 c5bf 0000 0020 3bc5 823f
00000300: 0000 00a0 55a9 c8bf 0000 0000 eb68 cfbf
00000310: 0000 0040 c131 b8bf 0000 00a0 1c06 c2bf
00000320: 0000 0000 c7c7 b43f 0000 00c0 36c4 bbbf
00000330: 0000 0040 b94c c73f 0000 00e0 bfd3 d03f
00000340: 0000 0080 84d7 ba3f 0000 00e0 b6ce b03f
00000350: 0000 0040 cd1b a0bf 0000 0020 4c78 93bf
00000360: 0000 00c0 72b7 c43f 0000 0040 988e a73f
00000370: 0000 0040 5753 b73f 0000 0060 83b1 a03f
00000380: 0000 0080 f3ed a93f 0000 0080 7355 bb3f
00000390: 0000 0000 b78a bb3f 0000 00e0 9e1f 923f
000003a0: 0000 00c0 f171 b63f 0000 00e0 44e1 ce3f
000003b0: 0000 0060 a624 c33f 0000 0000 2c07 663f
000003c0: 0000 0000 45d5 b53f 0000 0000 828a bfbf
000003d0: 0000 0000 ff97 c93f 0000 00e0 d2fd 8c3f
000003e0: 0000 0080 facc d43f 0000 00a0 6296 cb3f
000003f0: 0000 00c0 11ef b5bf 0000 0040 795f cf3f
00000400: 0000 00c0 6b0e a9bf 0000 0040 bfa7 c73f
00000410: 0000 00e0 25a2 c13f 0000 0060 c4f8 b23f
00000420: 0000 0040 a516 73bf 0000 00e0 ba4a d03f
00000430: 0000 0020 34d0 c63f 0000 0000 bb7c d43f
00000440: 0000 0060 5f45 c4bf 0000 0060 84ed c9bf
00000450: 0000 0040 ae8a c03f 0000 0020 e708 b13f
00000460: 0000 0080 5124 b43f 0000 00c0 59f2 c63f
00000470: 0000 0020 87e5 c83f 0000 0080 3a70 ae3f
00000480: 0000 00e0 5d0a d43f 0000 0020 c475 c2bf
00000490: 0000 0000 4283 6dbf 0000 0040 35ce d13f
000004a0: 0000 0020 6667 b6bf 0000 0080 0188 cdbf
000004b0: 0000 00a0 16ed c33f 0000 00a0 c4be b03f
000004c0: 0000 00a0 8289 b63f 0000 00e0 ecf5 c83f
000004d0: 0000 00c0 1344 bb3f 0000 00a0 3192 c33f
000004e0: 0000 00a0 6fd2 c83f 0000 0020 8da9 86bf
000004f0: 0000 0060 d17e bbbf 0000 0080 5e42 d03f
00000500: 0000 0080 77fe c6bf 0000 00a0 0755 71bf
00000510: 0000 0000 1bee b63f 0000 00e0 732b c33f
00000520: 0000 0080 76cf c83f 0000 00e0 1c28 d5bf
00000530: 0000 0080 643d dabf 0000 0020 eee9 c83f
00000540: 0000 0020 3a4f d13f 0000 0000 ff1f c53f
00000550: 0000 00c0 673f b9bf 0000 00c0 420a 96bf
00000560: 0000 0000 ad42 c8bf 0000 00e0 e51f c03f
00000570: 0000 0060 fe8b d03f 0000 00e0 32eb a5bf
00000580: 0000 0000 4c92 d0bf 0000 0060 ba49 cb3f
00000590: 0000 0080 d5d2 b4bf 0000 0080 00b8 d13f
000005a0: 0000 0020 352b aebf 0000 00e0 680f ce3f
000005b0: 0000 00a0 c59a d6bf 0000 0020 e9c5 c6bf
000005c0: 0000 0040 42a2 ba3f 0000 0020 e481 d03f
000005d0: 0000 0000 0bc1 aebf 0000 00e0 8da4 823f
000005e0: 0000 00c0 45f4 d13f 0000 00a0 bdad d2bf
000005f0: 0000 0000 1beb d93f 0000 00e0 8466 a93f
00000600: 0000 0040 10ee cabf 0000 00a0 2f92 c0bf
00000610: 0000 0020 79d9 cb3f 0000 0060 20f3 cb3f
00000620: 0000 00e0 7737 e03f 0000 0060 98d4 d2bf
00000630: 0000 0020 d1ec dabf 0000 00c0 dfc7 c2bf
00000640: 0000 0080 cec4 c13f 0000 0080 fa1b b73f
00000650: 0000 00c0 a8b6 d4bf 0000 00a0 434b d3bf
00000660: 0000 0040 197d dbbf 0000 0020 629f d63f
00000670: 0000 00a0 4cd7 d2bf 0000 00e0 e26c 863f
00000680: 0000 00c0 3cd4 8abf 0000 0020 0b36 b13f
00000690: 0000 0020 c5f9 d13f 0000 0020 9d65 c13f
000006a0: 0000 0080 a863 d2bf 0000 0000 7f95 dabf
000006b0: 0000 0080 6e72 b5bf 0000 0020 5ccc d23f
000006c0: 0000 0020 bce6 d9bf 0000 00e0 d5fc a93f
000006d0: 0000 00e0 7446 a93f 0000 0080 230a c7bf
000006e0: 0000 0080 9a58 bd3f 0000 0060 6c16 d63f
000006f0: 0000 0040 6993 da3f 0000 0000 32d7 d8bf
00000700: 0000 0000 6ca1 de3f 0000 00a0 2cd2 cc3f
00000710: 0000 00c0 9ac8 b9bf 0000 00a0 c398 b5bf
00000720: 0000 0000 3097 e3bf 0000 0020 263a 423f
00000730: 0000 0060 677f d83f 0000 00e0 a2a6 d5bf
00000740: 0000 0060 eea4 d03f 0000 0060 5332 e33f
00000750: 0000 00e0 e7ee d23f 0000 0080 ba7b e03f
00000760: 0000 0080 66cd ddbf 0000 0080 9f79 ce3f
00000770: 0000 0020 20de e0bf 0000 00a0 aa23 6a3f
00000780: 0000 0040 6272 d6bf 0000 00e0 bb64 cdbf
00000790: 0000 00a0 7f4e db3f 0000 0040 7883 e1bf
000007a0: 0000 00c0 3efe b7bf 0000 0060 17eb c63f
000007b0: 0000 00a0 ef7a db3f 0000 0040 932a c63f
000007c0: 0000 00a0 045c e13f 0000 0080 a7f5 d7bf
000007d0: 0000 00a0 08d2 d03f 0000 0020 2897 ddbf
000007e0: 0000 00a0 e95c ce3f 0000 0060 8775 d63f
000007f0: 0000 0080 d88c d73f 0000 00a0 08fb d23f
97.0 103.0 101.0 110.0 116.0 47.0 97.0 99.0
116.0 111.0 114.0 47.0 100.0 101.0 110.0 115.0
101.0 47.0 107.0 101.0 114.0 110.0 101.0 108.0
58.0 48.0 nan 8.0 64.0 nan 0.1146596223115921 0.06730258464813232
-0.0013184291310608387 -0.33864033222198486 0.30313366651535034 -0.13752418756484985 -0.11686161905527115 0.03975772485136986 0.13779765367507935 0.15291741490364075
-0.18385523557662964 -0.014366342686116695 -0.068878673017025 0.22267140448093414 -0.19515131413936615 0.23765581846237183 -0.3598244786262512 0.1405065953731537
0.10792837291955948 0.08061981946229935 -0.2505851089954376 -0.10720999538898468 0.27633538842201233 -0.21311676502227783 0.16444626450538635 0.12272666394710541
0.03551924601197243 -0.20509445667266846 -0.04320668429136276 -0.11875902116298676 0.3707581162452698 0.10501491278409958 0.0030752888415008783 0.13165751099586487
-0.3164564371109009 0.17669308185577393 0.39647069573402405 -0.06482776254415512 -0.20753756165504456 0.10497672110795975 0.20851382613182068 0.33495980501174927
0.21634511649608612 -0.1536967009305954 0.10834299027919769 0.1486438810825348 -0.11987099051475525 0.16041888296604156 -0.016108034178614616 -0.19551001489162445
-0.06986390054225922 -0.1615711897611618 0.14830023050308228 -0.025225065648555756 -0.19357338547706604 -0.11248625814914703 -0.10477388650178909 0.3959478437900543
-0.06976716965436935 -0.2196885347366333 -0.17981311678886414 -0.2955334484577179 0.19719642400741577 0.052167750895023346 -0.16861189901828766 0.009165250696241856
-0.19266767799854279 -0.24538934230804443 -0.09450919926166534 -0.1408115178346634 0.0811733603477478 -0.10846273601055145 0.18202891945838928 0.2629241645336151
0.10485103726387024 0.0656542107462883 -0.031462110579013824 -0.01901358552277088 0.16184839606285095 0.04600978642702103 0.09111542999744415 0.032604318112134933
0.050643548369407654 0.10677263140678406 0.1075853705406189 0.017698748037219048 0.08767615258693695 0.2412496656179428 0.149555966258049 0.002688966691493988
0.085285484790802 -0.1232072114944458 0.19995105266571045 0.014156005345284939 0.32501089572906494 0.21552689373493195 -0.08567915856838226 0.24510112404823303
-0.048938147723674774 0.1848067343235016 0.13776086270809174 0.07410838454961777 -0.004660268314182758 0.2545611560344696 0.17822887003421783 0.320112943649292
-0.1583670824766159 -0.20256094634532928 0.12923219799995422 0.06654209643602371 0.0786791741847992 0.17927095293998718 0.19450463354587555 0.05944998562335968
0.31313273310661316 -0.14421893656253815 -0.0036026276648044586 0.27821093797683716 -0.08751524239778519 -0.23071306943893433 0.1556728631258011 0.06541088968515396
0.08803573995828629 0.19500504434108734 0.10650752484798431 0.15289898216724396 0.1939219981431961 -0.011065580882132053 -0.10740383714437485 0.2540508508682251
-0.17964071035385132 -0.004231481347233057 0.08957070112228394 0.1497635692358017 0.19383126497268677 -0.33057329058647156 -0.4099971055984497 0.19463898241519928
0.2704606354236603 0.16503894329071045 -0.09862373769283295 -0.02152351662516594 -0.18953478336334229 0.12597344815731049 0.25854453444480896 -0.042810048907995224
-0.2589292526245117 0.21318750083446503 -0.08134207129478455 0.27685558795928955 -0.058923397213220596 0.23484526574611664 -0.35319653153419495 -0.17791475355625153
0.10403837263584137 0.25792792439460754 -0.060066550970077515 0.009102924726903439 0.28053420782089233 -0.29185429215431213 0.40497469902038574 0.049610283225774765
-0.2103901207447052 -0.12946124374866486 0.21757425367832184 0.2183571308851242 0.5067710280418396 -0.2942257821559906 -0.4207041561603546 -0.146724671125412
0.13881856203079224 0.09027066826820374 -0.3236486315727234 -0.30146875977516174 -0.4295104146003723 0.35347798466682434 -0.29439082741737366 0.010949871502816677
-0.013100123032927513 0.06723088771104813 0.2808697521686554 0.13591350615024567 -0.2873326539993286 -0.4153745174407959 -0.08377733826637268 0.29372313618659973
-0.4047079384326935 0.05075710639357567 0.04936566576361656 -0.17999690771102905 0.1146332323551178 0.34511861205101013 0.41524726152420044 -0.3881344795227051
0.47860240936279297 0.2251640111207962 -0.10071723163127899 -0.08436224609613419 -0.6122055053710938 0.0005562482983805239 0.3827761113643646 -0.33829566836357117
0.26006659865379333 0.5998932719230652 0.2958316504955292 0.5151035785675049 -0.4656616449356079 0.23808664083480835 -0.5271149277687073 0.003190835239365697
-0.35073143243789673 -0.22963665425777435 0.42666617035865784 -0.5472985506057739 -0.09372322261333466 0.17904941737651825 0.4293784201145172 0.17317429184913635
0.5424826741218567 -0.3743685483932495 0.26281943917274475 -0.46235087513923645 0.2372104674577713 0.3509233891963959 0.3679715394973755 0.29657188057899475
